2022-06-23 14:25:37.978184: I tensorflow/core/common_runtime/gpu/gpu_device.cc:1532] Created device /job:localhost/replica:0/task:0/device:GPU:0 with 5472 MB memory:  -> device: 0, name: NVIDIA GeForce RTX 3070, pci bus id: 0000:01:00.0, compute capability: 8.6
Model: "sequential"
_________________________________________________________________
 Layer (type)                Output Shape              Param #
=================================================================
 conv2d (Conv2D)             (None, 142, 254, 32)      896

 dropout (Dropout)           (None, 142, 254, 32)      0

 batch_normalization (BatchN  (None, 142, 254, 32)     128
 ormalization)

 conv2d_1 (Conv2D)           (None, 140, 252, 64)      18496

 max_pooling2d (MaxPooling2D  (None, 70, 126, 64)      0
 )

 dropout_1 (Dropout)         (None, 70, 126, 64)       0

 batch_normalization_1 (Batc  (None, 70, 126, 64)      256
 hNormalization)

 conv2d_2 (Conv2D)           (None, 68, 124, 128)      73856

 max_pooling2d_1 (MaxPooling  (None, 34, 62, 128)      0
 2D)

 flatten (Flatten)           (None, 269824)            0

 dropout_2 (Dropout)         (None, 269824)            0

 dense (Dense)               (None, 128)               34537600

 dropout_3 (Dropout)         (None, 128)               0

 batch_normalization_2 (Batc  (None, 128)              512
 hNormalization)

 dense_1 (Dense)             (None, 64)                8256

 dropout_4 (Dropout)         (None, 64)                0

 batch_normalization_3 (Batc  (None, 64)               256
 hNormalization)

 dense_2 (Dense)             (None, 6)                 390

=================================================================
Total params: 34,640,646
Trainable params: 34,640,070
Non-trainable params: 576
_________________________________________________________________
Found 1200 images belonging to 6 classes.
Found 600 images belonging to 6 classes.
data batch shape: (20, 144, 256, 3)
labels batch shape: (20, 6)
C:\*****\atronach_classifier3.py:161: UserWarning: `Model.fit_generator` is deprecated and will be removed in a future version. Please use `Model.fit`, which supports generators.
…
