2022-07-11 19:57:04.595962: I tensorflow/core/common_runtime/gpu/gpu_device.cc:1532] Created device /job:localhost/replica:0/task:0/device:GPU:0 with 5472 MB memory:  -> device: 0, name: NVIDIA GeForce RTX 3070, pci bus id: 0000:01:00.0, compute capability: 8.6
Model: "sequential"
_________________________________________________________________
 Layer (type)                Output Shape              Param #
=================================================================
 conv2d (Conv2D)             (None, 478, 852, 32)      896

 max_pooling2d (MaxPooling2D  (None, 239, 426, 32)     0
 )

 dropout (Dropout)           (None, 239, 426, 32)      0

 batch_normalization (BatchN  (None, 239, 426, 32)     128
 ormalization)

 conv2d_1 (Conv2D)           (None, 237, 424, 32)      9248

 max_pooling2d_1 (MaxPooling  (None, 118, 212, 32)     0
 2D)

 dropout_1 (Dropout)         (None, 118, 212, 32)      0

 batch_normalization_1 (Batc  (None, 118, 212, 32)     128
 hNormalization)

 conv2d_2 (Conv2D)           (None, 116, 210, 64)      18496

 max_pooling2d_2 (MaxPooling  (None, 58, 105, 64)      0
 2D)

 dropout_2 (Dropout)         (None, 58, 105, 64)       0

 batch_normalization_2 (Batc  (None, 58, 105, 64)      256
 hNormalization)

 conv2d_3 (Conv2D)           (None, 56, 103, 128)      73856

 max_pooling2d_3 (MaxPooling  (None, 28, 51, 128)      0
 2D)

 dropout_3 (Dropout)         (None, 28, 51, 128)       0

 batch_normalization_3 (Batc  (None, 28, 51, 128)      512
 hNormalization)

 conv2d_4 (Conv2D)           (None, 26, 49, 256)       295168

 max_pooling2d_4 (MaxPooling  (None, 13, 24, 256)      0
 2D)

 flatten (Flatten)           (None, 79872)             0

 dropout_4 (Dropout)         (None, 79872)             0

 dense (Dense)               (None, 512)               40894976

 dropout_5 (Dropout)         (None, 512)               0

 batch_normalization_4 (Batc  (None, 512)              2048
 hNormalization)

 dense_1 (Dense)             (None, 256)               131328

 dropout_6 (Dropout)         (None, 256)               0

 batch_normalization_5 (Batc  (None, 256)              1024
 hNormalization)

 dense_2 (Dense)             (None, 128)               32896

 dropout_7 (Dropout)         (None, 128)               0

 batch_normalization_6 (Batc  (None, 128)              512
 hNormalization)

 dense_3 (Dense)             (None, 6)                 774

=================================================================
Total params: 41,462,246
Trainable params: 41,459,942
Non-trainable params: 2,304
_________________________________________________________________
Found 1200 images belonging to 6 classes.
Found 600 images belonging to 6 classes.
data batch shape: (20, 480, 854, 3)
labels batch shape: (20, 6)
C:\******\atronach_classifier.py:167: UserWarning: `Model.fit_generator` is deprecated and will be removed in a future version. Please use `Model.fit`, which supports generators.
…
