Model: "sequential"
_________________________________________________________________
 Layer (type)                Output Shape              Param #
=================================================================
 conv2d (Conv2D)             (None, 148, 148, 32)      896

 dropout (Dropout)           (None, 148, 148, 32)      0

 max_pooling2d (MaxPooling2D  (None, 74, 74, 32)       0
 )

 batch_normalization (BatchN  (None, 74, 74, 32)       128
 ormalization)

 conv2d_1 (Conv2D)           (None, 72, 72, 64)        18496

 max_pooling2d_1 (MaxPooling  (None, 36, 36, 64)       0
 2D)

 flatten (Flatten)           (None, 82944)             0

 dropout_1 (Dropout)         (None, 82944)             0

 dense (Dense)               (None, 64)                5308480

 dropout_2 (Dropout)         (None, 64)                0

 batch_normalization_1 (Batc  (None, 64)               256
 hNormalization)

 dense_1 (Dense)             (None, 32)                2080

 dropout_3 (Dropout)         (None, 32)                0

 batch_normalization_2 (Batc  (None, 32)               128
 hNormalization)

 dense_2 (Dense)             (None, 12)                396

=================================================================
Total params: 5,330,860
Trainable params: 5,330,604
Non-trainable params: 256
_________________________________________________________________
Found 2400 images belonging to 12 classes.
Found 1200 images belonging to 12 classes.
data batch shape: (20, 150, 150, 3)
labels batch shape: (20, 12)
C:\*******\skyrim_classifier_14.py:160: UserWarning: `Model.fit_generator` is deprecated and will be removed in a future version. Please use `Model.fit`, which supports generators.
…
