Model: "sequential"
_________________________________________________________________
 Layer (type)                Output Shape              Param #
=================================================================
 conv2d (Conv2D)             (None, 148, 148, 32)      896

 dropout (Dropout)           (None, 148, 148, 32)      0

 max_pooling2d (MaxPooling2D  (None, 74, 74, 32)       0
 )

 batch_normalization (BatchN  (None, 74, 74, 32)       128
 ormalization)

 conv2d_1 (Conv2D)           (None, 72, 72, 32)        9248

 dropout_1 (Dropout)         (None, 72, 72, 32)        0

 max_pooling2d_1 (MaxPooling  (None, 36, 36, 32)       0
 2D)

 batch_normalization_1 (Batc  (None, 36, 36, 32)       128
 hNormalization)

 conv2d_2 (Conv2D)           (None, 34, 34, 64)        18496

 max_pooling2d_2 (MaxPooling  (None, 17, 17, 64)       0
 2D)

 flatten (Flatten)           (None, 18496)             0

 dropout_2 (Dropout)         (None, 18496)             0

 dense (Dense)               (None, 128)               2367616

 dropout_3 (Dropout)         (None, 128)               0

 batch_normalization_2 (Batc  (None, 128)              512
 hNormalization)

 dense_1 (Dense)             (None, 64)                8256

 dropout_4 (Dropout)         (None, 64)                0

 batch_normalization_3 (Batc  (None, 64)               256
 hNormalization)

 dense_2 (Dense)             (None, 12)                780

=================================================================
Total params: 2,406,316
Trainable params: 2,405,804
Non-trainable params: 512
_________________________________________________________________
Found 2400 images belonging to 12 classes.
Found 1200 images belonging to 12 classes.
data batch shape: (20, 150, 150, 3)
labels batch shape: (20, 12)
C:\Users\Rob\Desktop\Model_3~\skyrim_classifier_3.py:165: UserWarning: `Model.fit_generator` is deprecated and will be removed in a future version. Please use `Model.fit`, which supports generators.
…
