2021-05-11 01:33:48.314400: I tensorflow/core/common_runtime/gpu/gpu_device.cc:1264]
Model: "sequential"
_________________________________________________________________
Layer (type)                 Output Shape              Param #
=================================================================
conv2d (Conv2D)              (None, 358, 638, 32)      896
_________________________________________________________________
max_pooling2d (MaxPooling2D) (None, 179, 319, 32)      0
_________________________________________________________________
dropout (Dropout)            (None, 179, 319, 32)      0
_________________________________________________________________
batch_normalization (BatchNo (None, 179, 319, 32)      128
_________________________________________________________________
conv2d_1 (Conv2D)            (None, 177, 317, 32)      9248
_________________________________________________________________
max_pooling2d_1 (MaxPooling2 (None, 88, 158, 32)       0
_________________________________________________________________
dropout_1 (Dropout)          (None, 88, 158, 32)       0
_________________________________________________________________
batch_normalization_1 (Batch (None, 88, 158, 32)       128
_________________________________________________________________
conv2d_2 (Conv2D)            (None, 86, 156, 64)       18496
_________________________________________________________________
max_pooling2d_2 (MaxPooling2 (None, 43, 78, 64)        0
_________________________________________________________________
dropout_2 (Dropout)          (None, 43, 78, 64)        0
_________________________________________________________________
batch_normalization_2 (Batch (None, 43, 78, 64)        256
_________________________________________________________________
conv2d_3 (Conv2D)            (None, 41, 76, 64)        36928
_________________________________________________________________
max_pooling2d_3 (MaxPooling2 (None, 20, 38, 64)        0
_________________________________________________________________
dropout_3 (Dropout)          (None, 20, 38, 64)        0
_________________________________________________________________
batch_normalization_3 (Batch (None, 20, 38, 64)        256
_________________________________________________________________
conv2d_4 (Conv2D)            (None, 18, 36, 128)       73856
_________________________________________________________________
max_pooling2d_4 (MaxPooling2 (None, 9, 18, 128)        0
_________________________________________________________________
flatten (Flatten)            (None, 20736)             0
_________________________________________________________________
dropout_4 (Dropout)          (None, 20736)             0
_________________________________________________________________
dense (Dense)                (None, 512)               10617344
_________________________________________________________________
dropout_5 (Dropout)          (None, 512)               0
_________________________________________________________________
batch_normalization_4 (Batch (None, 512)               2048
_________________________________________________________________
dense_1 (Dense)              (None, 256)               131328
_________________________________________________________________
dropout_6 (Dropout)          (None, 256)               0
_________________________________________________________________
batch_normalization_5 (Batch (None, 256)               1024
_________________________________________________________________
dense_2 (Dense)              (None, 4)                 1028
=================================================================
Total params: 10,892,964
Trainable params: 10,891,044
Non-trainable params: 1,920
_________________________________________________________________
Found 800 images belonging to 4 classes.
Found 400 images belonging to 4 classes.
data batch shape: (20, 360, 640, 3)
labels batch shape: (20, 4)
C:\****\Python\Python39\site-packages\tensorflow\python\keras\engine\training.py:1940: UserWarning: `Model.fit_generator` is deprecated and will be removed in a future version. Please use `Model.fit`, which supports generators.
…
