2021-05-17 01:15:55.516400: I tensorflow/core/common_runtime/gpu/gpu_device.cc:1264]
Model: "sequential"
_________________________________________________________________
Layer (type)                 Output Shape              Param #
=================================================================
conv2d (Conv2D)              (None, 478, 852, 32)      896
_________________________________________________________________
max_pooling2d (MaxPooling2D) (None, 239, 426, 32)      0
_________________________________________________________________
dropout (Dropout)            (None, 239, 426, 32)      0
_________________________________________________________________
batch_normalization (BatchNo (None, 239, 426, 32)      128
_________________________________________________________________
conv2d_1 (Conv2D)            (None, 237, 424, 32)      9248
_________________________________________________________________
max_pooling2d_1 (MaxPooling2 (None, 118, 212, 32)      0
_________________________________________________________________
dropout_1 (Dropout)          (None, 118, 212, 32)      0
_________________________________________________________________
batch_normalization_1 (Batch (None, 118, 212, 32)      128
_________________________________________________________________
conv2d_2 (Conv2D)            (None, 116, 210, 64)      18496
_________________________________________________________________
max_pooling2d_2 (MaxPooling2 (None, 58, 105, 64)       0
_________________________________________________________________
dropout_2 (Dropout)          (None, 58, 105, 64)       0
_________________________________________________________________
batch_normalization_2 (Batch (None, 58, 105, 64)       256
_________________________________________________________________
conv2d_3 (Conv2D)            (None, 56, 103, 128)      73856
_________________________________________________________________
max_pooling2d_3 (MaxPooling2 (None, 28, 51, 128)       0
_________________________________________________________________
dropout_3 (Dropout)          (None, 28, 51, 128)       0
_________________________________________________________________
batch_normalization_3 (Batch (None, 28, 51, 128)       512
_________________________________________________________________
conv2d_4 (Conv2D)            (None, 26, 49, 256)       295168
_________________________________________________________________
max_pooling2d_4 (MaxPooling2 (None, 13, 24, 256)       0
_________________________________________________________________
flatten (Flatten)            (None, 79872)             0
_________________________________________________________________
dropout_4 (Dropout)          (None, 79872)             0
_________________________________________________________________
dense (Dense)                (None, 512)               40894976
_________________________________________________________________
dropout_5 (Dropout)          (None, 512)               0
_________________________________________________________________
batch_normalization_4 (Batch (None, 512)               2048
_________________________________________________________________
dense_1 (Dense)              (None, 256)               131328
_________________________________________________________________
dropout_6 (Dropout)          (None, 256)               0
_________________________________________________________________
batch_normalization_5 (Batch (None, 256)               1024
_________________________________________________________________
dense_2 (Dense)              (None, 4)                 1028
=================================================================
Total params: 41,429,092
Trainable params: 41,427,044
Non-trainable params: 2,048
_________________________________________________________________
Found 800 images belonging to 4 classes.
Found 400 images belonging to 4 classes.
data batch shape: (20, 480, 854, 3)
labels batch shape: (20, 4)
C:\********\Python\Python39\site-packages\tensorflow\python\keras\engine\training.py:1940: UserWarning: `Model.fit_generator` is deprecated and will be removed in a future version. Please use `Model.fit`, which supports generators.
…
