Model: "sequential"
_________________________________________________________________
 Layer (type)                Output Shape              Param #
=================================================================
 conv2d (Conv2D)             (None, 478, 852, 32)      896

 max_pooling2d (MaxPooling2D  (None, 239, 426, 32)     0
 )

 dropout (Dropout)           (None, 239, 426, 32)      0

 batch_normalization (BatchN  (None, 239, 426, 32)     128
 ormalization)

 conv2d_1 (Conv2D)           (None, 237, 424, 32)      9248

 max_pooling2d_1 (MaxPooling  (None, 118, 212, 32)     0
 2D)

 dropout_1 (Dropout)         (None, 118, 212, 32)      0

 batch_normalization_1 (Batc  (None, 118, 212, 32)     128
 hNormalization)

 conv2d_2 (Conv2D)           (None, 116, 210, 64)      18496

 max_pooling2d_2 (MaxPooling  (None, 58, 105, 64)      0
 2D)

 dropout_2 (Dropout)         (None, 58, 105, 64)       0

 batch_normalization_2 (Batc  (None, 58, 105, 64)      256
 hNormalization)

 conv2d_3 (Conv2D)           (None, 56, 103, 128)      73856

 max_pooling2d_3 (MaxPooling  (None, 28, 51, 128)      0
 2D)

 dropout_3 (Dropout)         (None, 28, 51, 128)       0

 batch_normalization_3 (Batc  (None, 28, 51, 128)      512
 hNormalization)

 conv2d_4 (Conv2D)           (None, 26, 49, 256)       295168

 max_pooling2d_4 (MaxPooling  (None, 13, 24, 256)      0
 2D)

 flatten (Flatten)           (None, 79872)             0

 dropout_4 (Dropout)         (None, 79872)             0

 dense (Dense)               (None, 512)               40894976

 dropout_5 (Dropout)         (None, 512)               0

 batch_normalization_4 (Batc  (None, 512)              2048
 hNormalization)

 dense_1 (Dense)             (None, 256)               131328

 dropout_6 (Dropout)         (None, 256)               0

 batch_normalization_5 (Batc  (None, 256)              1024
 hNormalization)

 dense_2 (Dense)             (None, 12)                3084

=================================================================
Total params: 41,431,148
Trainable params: 41,429,100
Non-trainable params: 2,048
_________________________________________________________________
Found 2400 images belonging to 12 classes.
Found 1200 images belonging to 12 classes.
data batch shape: (20, 480, 854, 3)
labels batch shape: (20, 12)
C:\*****\skyrim_classifier_7.py:173: UserWarning: `Model.fit_generator` is deprecated and will be removed in a future version. Please use `Model.fit`, which supports generators.
…
