2021-09-06 14:19:23.950276: I T:\src\github\tensorflow\tensorflow\core\common_runtime\gpu\gpu_device.cc:1053] Created TensorFlow device (/job:localhost/replica:0/task:0/device:GPU:0 with 1422 MB memory) -> physical GPU (device: 0, name: NVIDIA GeForce GTX 760, pci bus id: 0000:01:00.0, compute capability: 3.0)
_________________________________________________________________
Layer (type)                 Output Shape              Param #
=================================================================
conv2d_1 (Conv2D)            (None, 238, 424, 32)      896
_________________________________________________________________
max_pooling2d_1 (MaxPooling2 (None, 119, 212, 32)      0
_________________________________________________________________
dropout_1 (Dropout)          (None, 119, 212, 32)      0
_________________________________________________________________
batch_normalization_1 (Batch (None, 119, 212, 32)      128
_________________________________________________________________
conv2d_2 (Conv2D)            (None, 117, 210, 32)      9248
_________________________________________________________________
max_pooling2d_2 (MaxPooling2 (None, 58, 105, 32)       0
_________________________________________________________________
dropout_2 (Dropout)          (None, 58, 105, 32)       0
_________________________________________________________________
batch_normalization_2 (Batch (None, 58, 105, 32)       128
_________________________________________________________________
conv2d_3 (Conv2D)            (None, 56, 103, 64)       18496
_________________________________________________________________
max_pooling2d_3 (MaxPooling2 (None, 28, 51, 64)        0
_________________________________________________________________
dropout_3 (Dropout)          (None, 28, 51, 64)        0
_________________________________________________________________
batch_normalization_3 (Batch (None, 28, 51, 64)        256
_________________________________________________________________
conv2d_4 (Conv2D)            (None, 26, 49, 128)       73856
_________________________________________________________________
max_pooling2d_4 (MaxPooling2 (None, 13, 24, 128)       0
_________________________________________________________________
dropout_4 (Dropout)          (None, 13, 24, 128)       0
_________________________________________________________________
batch_normalization_4 (Batch (None, 13, 24, 128)       512
_________________________________________________________________
conv2d_5 (Conv2D)            (None, 11, 22, 256)       295168
_________________________________________________________________
max_pooling2d_5 (MaxPooling2 (None, 5, 11, 256)        0
_________________________________________________________________
flatten_1 (Flatten)          (None, 14080)             0
_________________________________________________________________
dropout_5 (Dropout)          (None, 14080)             0
_________________________________________________________________
dense_1 (Dense)              (None, 512)               7209472
_________________________________________________________________
dropout_6 (Dropout)          (None, 512)               0
_________________________________________________________________
batch_normalization_5 (Batch (None, 512)               2048
_________________________________________________________________
dense_2 (Dense)              (None, 256)               131328
_________________________________________________________________
dropout_7 (Dropout)          (None, 256)               0
_________________________________________________________________
batch_normalization_6 (Batch (None, 256)               1024
_________________________________________________________________
dense_3 (Dense)              (None, 4)                 1028
=================================================================
Total params: 7,743,588
Trainable params: 7,741,540
Non-trainable params: 2,048
_________________________________________________________________
Found 800 images belonging to 4 classes.
Found 400 images belonging to 4 classes.
Epoch 1/30
40/40 [==============================] - 63s 2s/step - loss: 0.1505 - acc: 0.9562 - val_loss: 0.2555 - val_acc: 0.9475
…
